03.深度学习/06.自编码器/02.卷积自编码器/autoencoder_quickdraw-1_i_50_cuda:0.pt (torch_old, 4122 bytes, 7 tensors)

conv_1.weight f4 [4, 1, 3, 3]
000000 dc 6b 94 3f de a4 d3 3f d2 d5 0e 40 b9 90 2c 40
       1.1595416 1.6534688 2.2318006 2.6963332
000010 d1 0b ba 40 31 e7 15 40 81 3f b5 3f a6 d6 56 40
       5.8139424 2.3422358 1.4160005 3.356851
000020 bc da 05 3e 28 12 11 3f 2e 50 27 bf e7 d2 db 3e
       0.13071722 0.5666833 -0.6535672 0.42934343
000030 5a 70 e4 be 1a 2a 9b bf c3 61 27 bf 16 b7 17 3e
       -0.44616967 -1.2122223 -0.6538355 0.14815935
000040 17 28 2c bf fd 59 92 3f a6 75 d5 3f 12 63 d3 3f
       -0.6724867 1.1433712 1.6676528 1.6514609
000050 a0 ad cf 40 d2 7a 16 be c7 fd 0e 3f 9f d7 fb 3f
       6.4899445 -0.1469529 0.55855983 1.9675177
000060 ec c2 95 bf 75 c7 ba be c8 b2 d0 3e 1d c2 af bc
       -1.170011 -0.364803 0.407614 -0.021454865
000070 89 ec 63 3d f4 fb 16 bd 26 8c 7e 3e 90 bf 02 bf
       0.0556455 -0.036861375 0.2485815 -0.5107355
000080 2f 8b 6a bd f0 66 25 40 21 0d 8c 3e c1 b3 9b 3e
       -0.057261642 2.5844078 0.27353767 0.3041058

conv_1.bias f4 [4]
000000 fc 34 37 3d 94 48 8d 3f e1 11 64 3e cb 40 07 40
       0.044728264 1.1037774 0.22272445 2.1133296

conv_2.weight f4 [8, 4, 3, 3]
000000 a3 78 8d 3e 55 a2 8c be c0 14 81 3c c0 07 7c 3e
       0.276311 -0.274676 0.015756965 0.24612331
000010 e8 14 58 be 3c 3e c2 3d 8b 3a 1b 3e 62 c8 a9 3c
       -0.21101725 0.094845265 0.15159051 0.020725433
000020 b4 80 03 3e c7 b6 88 3f 3e 65 a7 3f 0c eb 31 3f
       0.12842065 1.0680779 1.3077772 0.6949928
000030 c2 d9 26 3e f3 42 c4 3f 68 64 44 3e d9 ed 03 3f
       0.16294006 1.5332931 0.19178927 0.515348
000040 74 45 e7 bd 56 31 c3 bd 58 52 d7 3e 08 ca f2 3e
       -0.11292544 -0.095308945 0.4205501 0.47419763
000050 57 da 90 3e 18 57 2f 3e d9 23 27 bf 16 a3 87 3d
       0.2829158 0.17123067 -0.65289074 0.06622903
000060 c1 f2 cd 3d b2 aa 90 3e b7 1e a5 3d 78 42 1a bf
       0.10056067 0.2825523 0.08062499 -0.60257673
000070 7d e8 84 3f b7 ef f7 3e 43 64 dd bb 9b 74 a8 3f
       1.038345 0.48425075 -0.006756337 1.3160585
000080 41 c2 4b bd ac 02 68 be 96 99 9d 3b ff eb c2 bd
       -0.0497458 -0.22657269 0.0048095686 -0.09517669
000090 47 19 74 3d f8 d4 59 bd 40 75 87 bf 1a 57 7c 3a
       0.05959442 -0.05318162 -1.0582657 0.0009626016
0000a0 47 41 f2 be 5a be a5 c1 3e f6 d2 bc 57 4c f3 bd
       -0.47315428 -20.717945 -0.025752183 -0.11879795
0000b0 f9 03 b4 bd 7c 86 7c 3e 2e dc e4 3f 65 84 52 be
       -0.0878982 0.24660677 1.7879694 -0.20558317
0000c0 33 44 e5 be cb 6b bf 3f 8f f5 ea 3f 0b cb 41 bd
       -0.44778594 1.4954771 1.8356189 -0.047312777
0000d0 f0 30 7e bf 7a fb 23 3f d5 82 e0 bd a3 e9 d7 3d
       -0.9929342 0.640556 -0.10962454 0.105426095
0000e0 76 7d 3c 3e 27 5c ff 3d 61 de e6 bf e7 12 dc c0
       0.18407235 0.124687485 -1.8036615 -6.8773074
0000f0 3e 99 9f bc 14 f6 f6 3e 70 6a 1d bf e4 76 ff 3b
       -0.019482251 0.48234618 -0.61490536 0.0077961553
000100 de 15 7c 3e 92 46 ad bf 7a c1 bc 3e 65 f8 58 bf
       0.24617717 -1.3537161 0.3686636 -0.8475402
000110 95 01 bc 3f ea 51 2c bd fb 7a ef 3e 74 e0 94 be
       1.4687983 -0.042070307 0.46773514 -0.29077494
000120 b6 f5 f3 bd a7 06 db be 22 09 b5 be 34 be fe bd
       -0.119121 -0.42778513 -0.3535853 -0.12438622
000130 60 ac 17 c2 a9 69 1e be 09 3d 92 be e7 44 9c bd
       -37.918335 -0.15469994 -0.2856219 -0.076303296
000140 ab 48 b9 bd c3 48 7f 3f ee 5c 12 c0 2e ad 2e bf
       -0.090470634 0.997204 -2.286922 -0.68233
000150 c6 60 51 be 0f 5e 62 40 28 a9 9a bf c9 71 b3 bf
       -0.20447072 3.536991 -1.2082872 -1.40191
000160 83 bc 3e bf 11 3d 5c 3e 58 52 3a 3d 74 88 b4 bd
       -0.74506396 0.2150767 0.045488685 -0.08815089
000170 4a 8b 9d 3e d0 63 89 bf 98 05 81 be 63 a6 e8 3d
       0.30770332 -1.0733585 -0.2519958 0.11359861
000180 fc 1f 95 be b8 1c 4e bf 18 d2 91 3d b4 2c d5 3d
       -0.29125965 -0.8051257 0.0712015 0.10408917
000190 ed 55 e8 3e fa 6d dc 3e aa 16 95 be d1 d2 20 40
       0.45378056 0.43052655 -0.29118854 2.5128672
0001a0 0a da 6b 3e 7d c8 2f 3f 8b 8a 96 3e 31 dd 6c 3e
       0.23032394 0.68665296 0.29402575 0.23131253
0001b0 c1 ad f7 3e fb 70 10 3f c4 bb fe 3d a9 26 04 3e
       0.4837475 0.56422395 0.12438157 0.12905373
0001c0 c2 dc ba 3f 2c e0 74 bf 2d d7 95 3c 41 e4 0f bf
       1.459862 -0.9565456 0.01829108 -0.5620766
0001d0 97 f8 43 bf 09 8a f9 3f 44 d4 14 40 4c 14 c6 3f
       -0.76551193 1.949525 2.3254557 1.5474944
0001e0 c1 7b 64 3f a4 08 fd 3f 58 2b 08 40 0b 2d 81 3e
       0.89251333 1.9768262 2.1276455 0.25229678
0001f0 b0 ae 3f 40 7e 92 e2 3e ff 82 cd be e7 2c 7b bf
       2.995037 0.4425239 -0.40139005 -0.9811539
000200 40 5a 05 bd 7a 19 68 bf ca a3 83 c0 8d 1e 23 3e
       -0.032556772 -0.90663874 -4.113744 0.15929623
000210 84 70 27 c0 08 db 72 c1 e3 09 59 bf 3f b8 82 bf
       -2.6162424 -15.178474 -0.8478071 -1.0212477
000220 71 5b 54 be 2a 09 e7 bf 02 d8 e0 be ca 63 8c bf
       -0.20738007 -1.8049672 -0.439148 -1.0967953
000230 6b 8b ec be 41 c5 fc 3d 35 bb 9b bd 97 2e ec 3c
       -0.46200117 0.12342311 -0.07604066 0.02883081
000240 18 4d 88 3c 8e 19 60 bc 71 87 8a bd b0 8d 25 bc
       0.016638324 -0.013677968 -0.06764115 -0.010104582
000250 4f 50 03 c0 75 02 13 be 7f a9 38 be c1 32 92 c1
       -2.0517766 -0.14356406 -0.18033408 -18.274782
000260 79 3b 28 be 98 eb 11 bc 7a f6 6f bf b7 03 65 3e
       -0.16428937 -0.008906268 -0.9373547 0.22364698
000270 33 1f 47 bd 32 d5 99 3c fe 6c 6d bf 83 27 1b be
       -0.04861374 0.018778417 -0.92744434 -0.15151791
000280 75 68 f7 bf ec 7c 2f 3e 6c 3a 21 3d d2 67 f8 3d
       -1.9328753 0.17137498 0.039362356 0.12129177
000290 5e a4 08 3d e7 26 0f be 86 e0 40 3f 8a bc 15 3e
       0.033359878 -0.13979684 0.75342596 0.14622703
0002a0 91 36 0f bf a7 d2 ca 40 85 9e a3 3d b3 37 b4 3d
       -0.55942637 6.3382144 0.079892196 0.08799686
0002b0 0f 0e 27 3f 18 24 a0 be 34 b9 b0 3e 92 c0 6e 3f
       0.65255827 -0.31277537 0.345163 0.9326259
0002c0 f2 96 08 3f d9 fc a0 be 8a ea 88 3f cc 5a 12 be
       0.53355324 -0.31442907 1.0696576 -0.14292449
0002d0 77 33 a9 c1 e5 83 ce bf 2b 34 00 3e 58 bd 15 bf
       -21.15013 -1.6134001 0.125199 -0.5849204
0002e0 63 87 2d bd 92 61 38 3d c3 99 c3 3d 27 a5 8a 3d
       -0.042365443 0.045014925 0.09550812 0.067697816
0002f0 c4 86 c2 3b 93 f2 a3 bf f3 a2 53 3e 40 5b aa bf
       0.0059364755 -1.2808403 0.20667629 -1.3309097
000300 90 24 6f 3f 0e ba c4 3d a5 0a 49 3f 52 b0 5c bc
       0.93415165 0.096057996 0.7853187 -0.013469772
000310 6b 5f 2a 3f 6a 02 fc bd 93 fa f9 be 01 55 8c 3e
       0.66551846 -0.12305148 -0.48823985 0.27408603
000320 ae 0c b1 bc 8b 3f 66 c0 dc e7 0f be b6 74 98 bc
       -0.021612491 -3.5976284 -0.14053291 -0.01861034
000330 79 69 32 3e ad 49 10 be 31 b0 84 bb c8 5c a6 3f
       0.17423047 -0.14090605 -0.004049324 1.2997065
000340 0e 5a 81 be 4b 2d 02 3f 6a 83 c9 be 82 f8 2c be
       -0.2526402 0.5085036 -0.39358073 -0.16891673
000350 66 cc 68 be 1e 7f 1b 3d b5 a5 90 be 0f 40 85 3d
       -0.22734222 0.037963025 -0.28251424 0.06506359
000360 6b 05 29 3e 05 81 d1 bd 0b 00 af be c2 32 a4 3c
       0.16505973 -0.10229687 -0.3417972 0.020043734
000370 78 9d 28 3e 23 dd 38 3e f5 34 b7 be 62 f8 4c 3e
       0.1646632 0.18053107 -0.3578259 0.20016626
000380 45 53 23 bf 21 1e 09 3f d0 0b 31 3f e5 01 4e 3f
       -0.63798934 0.535616 0.6915865 0.8047164
000390 0a a0 d3 3e 03 43 06 40 1e 57 63 3f 32 e7 3f 3f
       0.41333038 2.09784 0.88804805 0.7496215
0003a0 9b db 24 3f 73 00 f0 3f d8 57 f3 3d 8e 08 9b 3e
       0.6439759 1.8750137 0.11881989 0.30279964
0003b0 d9 05 a2 3e 46 89 11 be d9 d2 34 be 06 15 13 3e
       0.31645086 -0.14212522 -0.17658557 0.14363489
0003c0 24 3b d4 be 4a c7 89 3e 69 40 74 3e 5b cd 03 3f
       -0.4145137 0.26909858 0.23852696 0.5148522
0003d0 44 ce 27 3f c6 6c 0a be 63 f8 58 3f 64 59 bb 3f
       0.6554911 -0.13518056 0.8475401 1.4636655
0003e0 5d e9 6f 40 ec d1 63 3f d2 49 1d bd 06 71 00 40
       3.7486184 0.8899219 -0.03840048 2.0068984
0003f0 b8 61 cd 3e 69 ea 65 3e 31 af c9 3d 12 4b ba be
       0.40113616 0.22452702 0.09847868 -0.363854

conv_2.bias f4 [8]
000000 50 aa d0 3f a0 39 23 40 3f d1 e3 3f c4 d4 1b 3f
       1.6301975 2.5503922 1.7798232 0.6087153
000010 dd 71 bc 3e 7f cb 90 40 b8 2e 45 40 cb 3e 0b 40
       0.3680562 4.524841 3.0809765 2.1757076

conv_3.weight f4 [4, 8, 3, 3]
000000 4e 9d e7 bd 09 f5 5e be 5e c1 96 be fa 03 6f 3f
       -0.113093 -0.21773161 -0.29444402 0.9336544
000010 be 9b 10 3f db 43 17 3d e5 b2 10 bf 19 3a 8b be
       0.56487644 0.036929946 -0.5652297 -0.27192762
000020 f5 b7 ca be 6e 1e fa 3f 60 29 bb bf 54 4c 8e 3f
       -0.39593473 1.9540536 -1.4622002 1.1117043
000030 cc db a9 40 3c fa 22 bf 0e 1d bf bf 4d 32 ca 3f
       5.3080807 -0.6366308 -1.4930742 1.57966
000040 96 6f ac be 93 a5 bc 3e 7e c6 cb bf fb ac 48 3f
       -0.33678883 0.36845073 -1.591995 0.7838895
000050 20 9d d6 bf 52 54 8c 3f 36 32 b6 40 45 76 30 3f
       -1.6766701 1.0963233 5.6936293 0.68930465
000060 88 69 e5 bf c9 b8 c0 3f ba 7c d5 bf 29 33 5d 40
       -1.792283 1.5056392 -1.6678689 3.4562476
000070 ea 93 98 3f 49 08 7f 3f b4 bd 2d bf 40 09 32 be
       1.192014 0.9962202 -0.6786759 -0.17386341
000080 14 ce 61 3e 43 39 90 3e 6b 69 57 bf f1 64 d3 bf
       0.22051269 0.28168687 -0.8414523 -1.651518
000090 fd b0 12 40 f0 64 bc 40 84 13 38 3f c1 f1 0a c0
       2.2920525 5.8873215 0.7190478 -2.1710055
0000a0 90 d5 8d 3e 16 73 3e bd 94 70 71 3f ad a6 0a c0
       0.27701998 -0.046496473 0.94312406 -2.166423
0000b0 f5 4a f9 bd ff fb 27 3e 9c b3 c5 bf 2b 3e 1f 3e
       -0.121725 0.16404723 -1.5445437 0.15551059
0000c0 53 89 d5 bf 9a eb 6a 3f b5 92 a9 bd a1 13 b0 3d
       -1.6682533 0.9176575 -0.08279935 0.08597494
0000d0 0d c8 ba bd b0 0a b0 40 c4 7f 5c bf 46 72 68 bf
       -0.09120188 5.5013046 -0.86132455 -0.9079937
0000e0 62 b0 88 3f 49 12 23 bf 91 d9 18 be a4 11 73 bd
       1.0678828 -0.63699776 -0.14926745 -0.059342995
0000f0 96 fa 57 3f 61 b0 79 3e 9b 77 75 bd 14 d6 2c be
       0.8436674 0.2438369 -0.059928518 -0.1687854
000100 73 0c 6b 3f a0 fe 6f be 39 2d 9e be d7 3b fa 3e
       0.9181587 -0.23436975 -0.30893877 0.4887378
000110 5c 33 24 be 29 f3 bc bc d6 13 12 be 56 cb 0f bf
       -0.16035217 -0.023065167 -0.1426538 -0.5616964
000120 51 d5 91 bb 58 af 0d bf 69 bd 88 3d cd e1 4a 3f
       -0.004450478 -0.5534568 0.06676752 0.79250795
000130 c0 24 58 3d 56 cb 8e 3e c5 05 b3 bd 70 d1 e1 be
       0.052769423 0.27889508 -0.08741335 -0.441051
000140 20 14 ed 3d 54 15 a5 3f 8c 37 6c bf 5c ef 17 3f
       0.11576104 1.2897134 -0.9227226 0.5934961
000150 86 bc 12 40 61 3b a3 bf a6 d1 84 3e e8 36 16 bf
       2.2927566 -1.2752496 0.259412 -0.5867753
000160 71 f2 37 3d de 23 b7 3e 6e 93 73 bf a9 6d fc 3e
       0.044908945 0.35769552 -0.95146835 0.49302414
000170 d4 e4 cd be 03 74 41 3f 32 68 f0 3f 6d f1 57 bf
       -0.40213645 0.75567645 1.8781798 -0.8435276
000180 53 cb 11 bf 47 38 5b bf 24 87 21 3e 54 0b be 40
       -0.56950873 -0.8563275 0.15774208 5.938883
000190 b0 d8 18 40 6e d1 1e bf 76 70 a2 3e dd 0f 3a 3f
       2.3882256 -0.62038314 0.31726426 0.72680455
0001a0 eb 52 85 be 6a fa 89 3e f2 61 6f be 8a 61 46 3e
       -0.26039824 0.26948863 -0.23377207 0.19373146
0001b0 41 71 dc 3f e6 14 1c 40 24 12 38 bf 1b 11 41 bf
       1.7222062 2.4387755 -0.7190268 -0.75416726
0001c0 6c 85 d5 bf 34 01 86 3e ec 82 42 3f b2 11 3b 3e
       -1.6681342 0.26172793 0.7598102 0.18268469
0001d0 92 ca 15 3f 08 75 ab be 94 74 0d bf cb 87 09 bf
       0.5851222 -0.33487725 -0.5525601 -0.5372283
0001e0 6d ca ba be 2a 8a 98 3f 3c 86 0f 3d 86 73 f3 be
       -0.36482564 1.1917164 0.035040125 -0.47549075
0001f0 ae 69 08 3e 5b 24 81 be 22 70 7b bf 8c c1 0d 3e
       0.13321564 -0.2522305 -0.98217976 0.13843364
000200 b7 39 82 bc 02 97 b7 3e 7e b0 2e 3e 85 73 68 bd
       -0.015896661 0.35857397 0.17059514 -0.056750793
000210 e0 ee 3b bd 0a ce 1b be b4 ca 41 3e 0f 03 2d be
       -0.045882106 -0.15215316 0.18924981 -0.16895698
000220 bf fd 63 3f 79 ff 12 3d a5 3b c0 be e2 78 93 bd
       0.8905906 0.03588817 -0.37545505 -0.07200791
000230 08 57 ee be 02 6b fb 3d 4d ff 63 3e 4d af 62 3e
       -0.46550775 0.122762695 0.22265358 0.22137184
000240 2e a8 05 3e 37 d2 36 be b3 15 27 3e 88 7b c9 3e
       0.13052437 -0.17853628 0.16316871 0.3935206
000250 c1 55 2c 3f 3d 22 f9 be 15 8e 4a bf c6 a1 97 be
       0.6731835 -0.48658934 -0.7912305 -0.2961561
000260 14 e8 62 be f8 d2 f5 3e 22 f6 02 bf ab 3e 32 3f
       -0.22158843 0.4801252 -0.5115682 0.69626874
000270 18 c1 ae 40 f2 ed da be 06 58 63 bf 6d 86 86 3f
       5.461071 -0.42759663 -0.8880619 1.0509773
000280 6f 9d 4e 3f 3f 2d 2f bf 63 de 6c be 5e 79 9c 3e
       0.80708975 -0.68428415 -0.23131709 0.30561346
000290 c9 86 86 bf be dd 21 be fe 96 8d 40 15 27 3d 3d
       -1.0509883 -0.15807244 4.4246817 0.04617985
0002a0 f4 ed a5 bf 4c 05 f6 3f 8d ee 0e bf 0f a0 92 3f
       -1.2963243 1.9220366 -0.5583275 1.1455096
0002b0 43 7f 1b c0 d8 ee ff 3f f2 74 1b c0 7a ae 91 bf
       -2.4296424 1.9994764 -2.4290128 -1.1381371
0002c0 21 c6 b2 3f 1f b2 78 3f 6b 3e 2f 3e e1 74 fc bf
       1.3966714 0.9714679 0.17113654 -1.9723169
0002d0 4f 54 16 3f d5 f1 92 40 97 d2 8b bf bc ce ad bf
       0.58722395 4.5920205 -1.0923642 -1.3578715
0002e0 c8 1f d5 3f ef d9 13 40 6f 6b 7a be df a2 03 c0
       1.6650324 2.3101766 -0.24455045 -2.0568159
0002f0 06 86 0a c0 82 58 e7 3e 07 1a 87 bf 91 96 47 3f
       -2.1644301 0.45184714 -1.0554818 0.7796412
000300 58 ff 87 bf 30 d1 3b 3f 98 02 3c 3c 7b 4d a8 3e
       -1.06248 0.7336607 0.011475228 0.32871613
000310 99 fd 11 be c6 9d ca 40 66 15 dd be 64 9d 52 bf
       -0.14256896 6.3317595 -0.43180388 -0.8227141
000320 70 ca 6d 3f 36 ad 0b bf b0 ed 1b bf 63 1c cb 3e
       0.9288702 -0.54561174 -0.6090956 0.39670095
000330 fd 37 33 3f 72 00 40 3f 9f b3 f9 be 95 65 c7 3d
       0.70007306 0.7500068 -0.48769853 0.09736172
000340 4f 49 dd 3e aa 11 b3 be fa e3 56 be 52 ec c1 3e
       0.43219993 -0.34974414 -0.20985404 0.3787561
000350 6b 02 45 3b 98 6c 03 3e 0f 28 b6 be 0d 82 19 bf
       0.0030061256 0.12834394 -0.35577437 -0.59964067
000360 45 6f 64 bf 70 7d 28 3e 49 d9 34 bf 5c ca 02 3f
       -0.89232284 0.164541 -0.7064405 0.51090026
000370 d5 19 94 3f 66 5b 88 be f5 c2 1b bf a4 cd 46 3f
       1.1570383 -0.2663223 -0.60844356 0.7765753
000380 70 93 65 bf d3 63 6a be 2d 9a 3f bf a1 34 09 3f
       -0.89678097 -0.22889642 -0.7484463 0.5359593
000390 87 7a 8f 40 f6 8b 0a bf ab e0 22 bf ea 28 12 3f
       4.483707 -0.54119813 -0.63624066 0.5709368
0003a0 eb fd 31 bf d6 e8 6b 3e 1b 02 44 bf a8 3e 1b bf
       -0.69528073 0.23038039 -0.7656571 -0.6064248
0003b0 e6 2a 8d bf 78 55 80 3d 35 51 a3 40 cb 03 87 3f
       -1.1028717 0.06266302 5.103663 1.0548033
0003c0 a1 9a 9f bf ce 1f 45 3f 79 12 fe bf 86 91 dd 3f
       -1.2469064 0.77001655 -1.9849387 1.7310035
0003d0 30 56 16 40 ee ff 95 bf eb 23 22 3e 63 a4 b0 bf
       2.3490105 -1.1718729 0.15834014 -1.3800167
0003e0 98 8c 62 bd 45 ed eb be e1 87 05 bf 79 e6 07 c0
       -0.055309862 -0.4607946 -0.5216046 -2.123442
0003f0 37 32 10 bf a9 46 d9 40 a3 0f 7a 3f e2 30 6c bf
       -0.5632662 6.7898755 0.9768011 -0.9226209

conv_3.bias f4 [4]
000000 08 69 9d c1 9a f2 01 41 62 27 2a 41 65 4e a6 40
       -19.676285 8.121729 10.634615 5.1970696

conv_4.weight f4 [1, 4, 3, 3]
000000 22 7f ff bd a8 79 04 40 31 0b ca bc 44 7c af bf
       -0.124754205 2.0699253 -0.02466354 -1.3709798
000010 3e 21 a2 40 5b f3 c2 40 ff f4 d7 bc 51 5b b7 40
       5.066558 6.0922065 -0.02636194 5.729897
000020 4c 42 3d 3f 1e 0b dd 3b 32 22 0f 3d 0d 05 69 3d
       0.73929286 0.00674571 0.03494472 0.056889582
000030 87 02 63 3d 5a 1c b5 bd fe f1 10 be 88 17 90 3d
       0.055422332 -0.08843298 -0.14154813 0.07035738
000040 78 4e 17 be de f4 7b c1 ee 48 8e bd 9b e5 70 c0
       -0.14776027 -15.747282 -0.06947504 -3.764014
000050 0d d6 d0 bd b4 36 03 be 6c fa 7f 3f e1 84 9c c0
       -0.10197077 -0.12813836 0.9999149 -4.8912206
000060 68 45 b6 bd 79 ec 89 c0 96 71 d8 bd 5e 3c 05 3d
       -0.08899957 -4.3101163 -0.1056854 0.032528274
000070 03 40 7e bd 20 fc 2f 3d 28 f8 72 bd 9a a1 10 c1
       -0.062072765 0.042965055 -0.05931869 -9.0394535
000080 0a 34 72 bd 34 12 33 3d fb 72 57 bd 75 dc 2c 3d
       -0.05913166 0.04371853 -0.05259989 0.04220243
